…
2022-09-20 16:30:06     Loading dataset from /home/vineetb/cryodrgn/cryodrgn/testing/data/hand.mrcs
2022-09-20 16:30:06     Loaded 100 64x64 images
2022-09-20 16:30:06     Windowing images with radius 0.85
2022-09-20 16:30:06     Computing FFT
2022-09-20 16:30:06     Spawning 16 processes
2022-09-20 16:30:06     Symmetrizing image data
2022-09-20 16:30:06     Normalized HT by 0 +/- 94.426513671875
2022-09-20 16:30:06     WARNING: No translations provided
2022-09-20 16:30:07     Using circular lattice with radius 32
2022-09-20 16:30:07     HetOnlyVAE(
  (encoder): ResidLinearMLP(
    (main): Sequential(
      (0): Linear(in_features=3208, out_features=1024, bias=True)
      (1): ReLU()
      (2): ResidLinear(
        (linear): Linear(in_features=1024, out_features=1024, bias=True)
      )
      (3): ReLU()
      (4): ResidLinear(
        (linear): Linear(in_features=1024, out_features=1024, bias=True)
      )
      (5): ReLU()
      (6): ResidLinear(
        (linear): Linear(in_features=1024, out_features=1024, bias=True)
      )
      (7): ReLU()
      (8): Linear(in_features=1024, out_features=20, bias=True)
    )
  )
  (decoder): FTPositionalDecoder(
    (decoder): ResidLinearMLP(
      (main): Sequential(
        (0): Linear(in_features=202, out_features=1024, bias=True)
        (1): ReLU()
        (2): ResidLinear(
          (linear): Linear(in_features=1024, out_features=1024, bias=True)
        )
        (3): ReLU()
        (4): ResidLinear(
          (linear): Linear(in_features=1024, out_features=1024, bias=True)
        )
        (5): ReLU()
        (6): ResidLinear(
          (linear): Linear(in_features=1024, out_features=1024, bias=True)
        )
        (7): ReLU()
        (8): Linear(in_features=1024, out_features=2, bias=True)
      )
    )
  )
)
2022-09-20 16:30:07     9814038 parameters in model
2022-09-20 16:30:07     6455316 parameters in encoder
2022-09-20 16:30:07     3358722 parameters in decoder
2022-09-20 16:30:07     Warning: z dimension is not a multiple of 8 -- AMP training speedup is not optimized
2022-09-20 16:30:08     # =====> Epoch: 1 Average gen loss = 1.10873, KLD = 3.386924, total loss = 1.108840; Finished in 0:00:01.346893
…
